[I 2024-05-20 23:45:07,741] A new study created in memory with name: no-name-bab0fbb7-c728-4c8e-a140-11f605bc063d
-----biginning training-----
Namespace(epochs=10, learning_rate=0.0022610640347882002, weight_decay=0.0003898673754813714, patience=5, seed=42, batch_size=128, output_dir='./finetune')
device: cuda:0
lr: 0.002261, wd: 0.00039
calculating mean and std...
mean: tensor([0.4256]), std: tensor([0.2537])
loading dataset...
VisionTransformer(
  (to_patch_embedding): Sequential(
    (0): Rearrange('b c (h p1) (w p2) -> b (h w) (p1 p2 c)', p1=8, p2=8)
    (1): LayerNorm((64,), eps=1e-05, elementwise_affine=True)
    (2): Linear(in_features=64, out_features=768, bias=True)
    (3): LayerNorm((768,), eps=1e-05, elementwise_affine=True)
  )
  (dropout): Dropout(p=0.0, inplace=False)
  (transformer): Transformer(
    (norm): LayerNorm((768,), eps=1e-05, elementwise_affine=True)
    (layers): ModuleList(
      (0-5): 6 x ModuleList(
        (0): Attention(
          (norm): LayerNorm((768,), eps=1e-05, elementwise_affine=True)
          (attend): Softmax(dim=-1)
          (dropout): Dropout(p=0.0, inplace=False)
          (to_qkv): Linear(in_features=768, out_features=1536, bias=False)
          (to_out): Sequential(
            (0): Linear(in_features=512, out_features=768, bias=True)
            (1): Dropout(p=0.0, inplace=False)
          )
        )
        (1): FeedForward(
          (net): Sequential(
            (0): LayerNorm((768,), eps=1e-05, elementwise_affine=True)
            (1): Linear(in_features=768, out_features=768, bias=True)
            (2): GELU(approximate='none')
            (3): Dropout(p=0.0, inplace=False)
            (4): Linear(in_features=768, out_features=768, bias=True)
            (5): Dropout(p=0.0, inplace=False)
          )
        )
      )
    )
  )
  (to_latent): Identity()
  (mlp_head): Linear(in_features=768, out_features=100, bias=True)
)
  0%|          | 0/10 [00:00<?, ?it/s]Warning: Could not read image /data/furuya/sportsimage/train/high jump/159.lnk. Skipping it.
Epoch 1, Training loss: 4.5481, Validation loss: 4.3443, Validation Accuracy: 0.0180
 10%|█         | 1/10 [01:18<11:49, 78.83s/it]Warning: Could not read image /data/furuya/sportsimage/train/high jump/159.lnk. Skipping it.
…
