-----biginning training-----
Namespace(epochs=100, learning_rate=0.000988, weight_decay=0.001041, patience=20, seed=42, batch_size=256, output_dir='./output')
device: cuda:0
lr: 0.000988, wd: 0.001041
calculating mean and std...
num classes: 1000
mean: tensor([0.0451]), std: tensor([0.1337])
loading dataset...
VisionTransformer(
  (to_patch_embedding): Sequential(
    (0): Rearrange('b c (h p1) (w p2) -> b (h w) (p1 p2 c)', p1=8, p2=8)
    (1): LayerNorm((64,), eps=1e-05, elementwise_affine=True)
    (2): Linear(in_features=64, out_features=768, bias=True)
    (3): LayerNorm((768,), eps=1e-05, elementwise_affine=True)
  )
  (dropout): Dropout(p=0.0, inplace=False)
  (transformer): Transformer(
    (norm): LayerNorm((768,), eps=1e-05, elementwise_affine=True)
    (layers): ModuleList(
      (0-5): 6 x ModuleList(
        (0): Attention(
          (norm): LayerNorm((768,), eps=1e-05, elementwise_affine=True)
          (attend): Softmax(dim=-1)
          (dropout): Dropout(p=0.0, inplace=False)
          (to_qkv): Linear(in_features=768, out_features=1536, bias=False)
          (to_out): Sequential(
            (0): Linear(in_features=512, out_features=768, bias=True)
            (1): Dropout(p=0.0, inplace=False)
          )
        )
        (1): FeedForward(
          (net): Sequential(
            (0): LayerNorm((768,), eps=1e-05, elementwise_affine=True)
            (1): Linear(in_features=768, out_features=768, bias=True)
            (2): GELU(approximate='none')
            (3): Dropout(p=0.0, inplace=False)
            (4): Linear(in_features=768, out_features=768, bias=True)
            (5): Dropout(p=0.0, inplace=False)
          )
        )
      )
    )
  )
  (to_latent): Identity()
  (mlp_head): Linear(in_features=768, out_features=1000, bias=True)
)
  0%|          | 0/100 [00:00<?, ?it/s]Epoch 1, Training loss: 3.9600, Validation loss: 2.5553, Validation Accuracy: 0.3444
  1%|          | 1/100 [31:27<51:54:28, 1887.57s/it]Epoch 2, Training loss: 1.6877, Validation loss: 1.0509, Validation Accuracy: 0.6938
  2%|▏         | 2/100 [1:02:45<51:14:07, 1882.11s/it]Epoch 3, Training loss: 0.7761, Validation loss: 0.5828, Validation Accuracy: 0.8300
…
